qubo_prover_v3/qubo_prover_v3/neural/models/rule_selector_v1.pth (torch, 29466 bytes, 14 tensors)

fc1.weight f4 [64, 12]
000000 45 20 31 3e 4c 89 79 be 89 93 ce 3d eb 0c 98 be
       0.17297466 -0.24368781 0.10086734 -0.29697356
000010 f2 e3 87 3e f4 34 38 be fb 60 1e be c1 3c b0 bd
       0.26541096 -0.1798895 -0.15466683 -0.08605338
000020 e3 ed 0b be e4 f5 2a be 26 d1 e1 bc b4 7f df bd
       -0.13664965 -0.16695362 -0.02756555 -0.10913029
000030 6c 0d bc 3d bb c2 f9 3d ba 73 9a 3e 45 e0 43 be
       0.091822475 0.12195345 0.30166417 -0.19128521
000040 01 18 70 be ec 18 90 be c3 27 89 be 2c e4 7c 3e
       -0.23446657 -0.28144014 -0.26788148 0.24696416
000050 44 48 88 3e bc d2 29 be a8 9b 87 3e fe 20 8a 3e
       0.26617634 -0.16584295 0.26485944 0.26978296
000060 70 9b 18 be cf 5b 2b 3d f6 7e b9 be bb 3a 2d be
       -0.14903045 0.041835602 -0.36229676 -0.16916935
000070 3f 9e 93 be 45 0a 5b 3e 42 45 f3 bc 36 24 42 be
       -0.2883167 0.21390636 -0.02969611 -0.18959126
000080 6c 83 f9 3d d9 34 6e 3e a2 46 09 be 81 91 29 be
       0.1218327 0.23262347 -0.1340585 -0.16559412
000090 36 cc 8f bd eb 20 a3 be 00 2f ec bd 40 68 83 3d
       -0.07021372 -0.31861052 -0.11532402 0.064163685
0000a0 ec 41 db bd fa 60 8c 3d c2 7c 27 bd 98 fa cf bd
       -0.10705933 0.06854434 -0.040890463 -0.10155219
0000b0 c8 d9 7e 3e 5d 8f 54 be 7c 3e 8a 3d 36 21 79 be
       0.24887764 -0.20757814 0.06750199 -0.24329075
0000c0 5e f3 93 be 47 6a 01 3e 1c 1b 8c be d2 e5 a3 bc
       -0.28896612 0.12638198 -0.27364433 -0.020007048
0000d0 b8 0d 4b 3e 25 db 24 be 77 a3 9b be f5 d1 8a 3d
       0.19829452 -0.16099222 -0.3039815 0.067783274
0000e0 60 89 5c 3c 2f 7e 95 3d 65 2b cf 3c 80 ae c2 bb
       0.013460487 0.07299458 0.025289247 -0.005941212
0000f0 46 7d 82 be 31 24 f1 bd 3f 49 98 be c8 bd f1 bd
       -0.254862 -0.11774481 -0.29743382 -0.11803776
000100 cb 87 0a be 27 be 38 be 44 f0 85 3e 00 68 8e 3e
       -0.13528363 -0.18041287 0.2615987 0.2781372
000110 b8 99 2b 3e 9f ae 32 3e b6 8b 97 bd ba 4f 80 be
       0.16757858 0.17449425 -0.073996946 -0.25060827
000120 0c 32 d4 be 68 3c ec 3d 2d f7 f4 bd 62 c2 44 3e
       -0.41444433 0.11534959 -0.119612075 0.19214776
000130 98 83 64 3d 71 45 dd bd ca bf 0a be ea 70 43 3e
       0.05578956 -0.108042605 -0.13549724 0.19086042
000140 9e 3b 2d 3e e5 2f ac be 6d 31 27 3d 8e 65 e1 bd
       0.16917273 -0.3363029 0.04081862 -0.11005698
000150 f1 d1 7e 3a 82 5d 87 bd 75 35 94 3e a3 18 95 3e
       0.0009720615 -0.06609632 0.28947034 0.2912036
000160 a8 f2 42 bd e1 25 32 3e 62 e8 80 3e 63 b4 70 3e
       -0.047594696 0.17397262 0.25177294 0.23506312
000170 42 8e 78 be 0b a9 60 3e c6 1d 0b be 38 32 63 3e
       -0.24273017 0.21939485 -0.13585576 0.22187126
000180 e0 f6 1e be 7e c9 de 3d 25 6a 08 3d c6 0a 99 be
       -0.15523863 0.10878275 0.033304352 -0.29891032
000190 f4 be ab bd 7d da 40 3e 15 e4 86 be fa 58 09 3e
       -0.08386031 0.18833347 -0.26345888 0.13412848
0001a0 94 ce e4 3d 72 a6 2d be 3f 4d 09 3d d6 33 0e be
       0.11172214 -0.16958025 0.033520933 -0.13886961
0001b0 36 10 85 bd b4 83 1d 3d a2 91 0e be 8f 9e 54 be
       -0.064972326 0.03845568 -0.13922742 -0.2076361
0001c0 58 1f da 3d 98 fd 1a 3e 7c 88 b0 3e bc bf 79 be
       0.106505096 0.15135801 0.3447913 -0.24389547
0001d0 80 97 fe 3d 61 9e 7c 3d 0b 14 da bd dc 4b 0e be
       0.1243124 0.06167448 -0.10648354 -0.13896126
0001e0 db e9 77 3d e2 6c 82 3d 7a d3 13 3e f8 7c dd bd
       0.060525756 0.06368424 0.1443614 -0.108148515
0001f0 3a 35 26 3e 8e a9 2a be ed c9 b4 be 80 0e 64 be
       0.16231242 -0.16666242 -0.35310307 -0.22271156
000200 6c b5 92 3e c3 12 12 bd b8 e8 82 bd 34 1f 78 bd
       0.2865404 -0.035662424 -0.06392044 -0.060576633
000210 a6 98 14 be be e1 28 3e 41 e9 c0 3c 47 16 4a be
       -0.14511356 0.16492364 0.023548724 -0.1973506
000220 e0 86 75 3c 4d be fd 3d 43 ad 82 be 75 45 2a bc
       0.01498577 0.123898126 -0.25522813 -0.010392536
000230 ba f7 8e 3e ab cd 3f be 0a f2 8f 3d b0 e6 43 3e
       0.27923375 -0.187308 0.07028587 0.19130969
000240 03 f1 01 3d f5 2f 16 3e 66 54 67 3d 6a d9 db 3c
       0.031723987 0.14666732 0.056476973 0.02683707
000250 98 7e 11 3d 6e ae 28 be a5 bb ca 3e 5a 18 43 3e
       0.03552112 -0.1647279 0.39596286 0.19052258
000260 92 04 15 3e 58 81 9a 3d d6 a9 81 3c 88 0b ff bd
       0.14552525 0.075442016 0.015828054 -0.12453371
000270 64 68 04 be 17 bd 9b be 51 7f f4 bd aa fc 1f be
       -0.12930447 -0.30417702 -0.11938346 -0.15623727
000280 48 b6 89 be 1a be 82 3d c3 33 9e bb 61 73 a5 3d
       -0.26896882 0.06383915 -0.004827948 0.080786474
000290 63 89 80 be 67 c5 c7 3c 7a cf 18 be 10 a3 d6 3d
       -0.25104818 0.024386121 -0.14922896 0.104803205
0002a0 73 1e d7 3c 2e 42 dc bc 3c 1e b7 3e dc 83 9e be
       0.026259637 -0.026887026 0.35765254 -0.30959976
0002b0 b6 0a 4e be eb 87 8f be d6 8f 41 bc f5 2e 25 be
       -0.20121273 -0.28033385 -0.011814078 -0.16131194
0002c0 94 d1 d3 3d 7e 8c 14 be 73 98 69 3e 57 a8 82 be
       0.10342708 -0.14506719 0.22812061 -0.25519058
0002d0 4d da eb 3d ee eb 99 3e 68 84 7c be 8f 30 00 3b
       0.11516247 0.30062813 -0.24659884 0.0019560193
0002e0 10 aa 93 3c ee 30 dc 3c 08 0f f4 3d d1 5e 5f bb
       0.018025428 0.0268788 0.119169295 -0.0034083615
0002f0 e8 21 71 3d 1c 07 84 3e 63 68 c5 bd f2 f3 90 3e
       0.058870226 0.25786674 -0.09639051 0.28311116
000300 8c 62 6f bd 07 9c 77 be ec f5 38 3d 14 40 a7 be
       -0.05844359 -0.24180613 0.045156404 -0.32666075
000310 38 29 4e bd 06 24 3c bc b4 c3 ec 3c c7 36 64 3d
       -0.050332278 -0.011483198 0.028901912 0.055716302
000320 5c bb a2 bd c2 0d 2f be aa 9c 27 be 70 85 cc 3d
       -0.07945892 -0.17095092 -0.16368356 0.09986389
000330 aa e8 dc 3c 64 c7 1b bd 0a 5b 47 3d 2e c9 c2 3d
       0.026966412 -0.03803195 0.048670806 0.09511028
000340 d2 78 d5 bd c3 26 02 3e 58 f1 6d 3e 4f a3 7d be
       -0.10423435 0.12710099 0.23236597 -0.24769329
000350 b6 f9 11 3e b1 da 98 3d 33 72 a9 bd 8e b9 8a be
       0.14255413 0.07463587 -0.08273735 -0.27094692
000360 cf a2 3c be f7 88 2c 3e 26 e2 eb bd 2c 80 a1 be
       -0.18421482 0.16849123 -0.11517744 -0.315431
000370 90 9c 88 be 6a 3b 1d bb 8a 9a dc 3b 39 08 1b 3e
       -0.26681948 -0.0023991712 0.0067322897 0.15139855
000380 0c 78 bc 3d 2e 97 1e 3e a7 51 65 be d8 3c bf 3d
       0.092025846 0.15487358 -0.22394429 0.09337777
000390 6d dd 88 be 25 8c 22 3e b2 19 6c 3e 26 96 90 be
       -0.26731434 0.15873773 0.23056677 -0.28239554
0003a0 70 cd 35 3e c7 f5 73 3d 43 66 14 bd 0e 67 09 3e
       0.1775415 0.059560563 -0.036230337 0.13418218
0003b0 54 42 e7 bd 34 2d 91 be cf b6 68 bd 40 73 21 3d
       -0.11291948 -0.283548 -0.056814965 0.03941655
0003c0 be 7d 64 3e 13 f7 b3 3b 2c 46 c6 3d e8 2e 75 3e
       0.22313592 0.0054921 0.09681353 0.23943675
0003d0 d0 b7 27 3d 03 d2 14 3d 72 ed 9e be da 64 8f be
       0.04094678 0.036333095 -0.3104053 -0.2800663
0003e0 50 9b 8b bd c3 61 c7 3d 32 50 ad be c0 7b 82 3d
       -0.06816733 0.097354434 -0.33850247 0.0637126
0003f0 cd bd d4 3d c1 a5 6e 3e 94 c2 78 be 66 25 91 be
       0.10387764 0.23305418 -0.24292976 -0.28348845

fc1.bias f4 [64]
000000 fa 72 2b 3e 30 d0 5e 3e c9 6f c1 bd d9 bd 1d be
       0.16743079 0.21759105 -0.094451495 -0.15404452
000010 ac 5a 69 3e 15 2a 7b be 24 ef 37 3e 5d 8d 40 be
       0.22788495 -0.24527772 0.17962319 -0.18803926
000020 d0 8e fe 3d af f5 24 bd 40 1a b4 3d 2f 85 ca 3b
       0.12429583 -0.040273365 0.08794069 0.0061804275
000030 64 5e e8 3d a5 e5 26 3d 00 34 80 be 05 00 05 bd
       0.113461286 0.04074635 -0.25039673 -0.03247072
000040 05 a8 c0 3d b9 57 41 3e 88 80 86 3e d1 96 58 3e
       0.09407047 0.1888112 0.26269937 0.21151282
000050 6a 3b 88 bc 3d e9 23 3c bf 85 21 3c f5 cf cd bd
       -0.016629893 0.010004339 0.009858548 -0.1004943
000060 f0 e9 3d be 3c 9f 13 3d 3d 4a 08 3e 5c a8 22 3e
       -0.18546271 0.03604053 0.1330957 0.15884537
000070 02 fd 71 3e 44 26 64 bd 7b 2d 04 3e 36 80 54 be
       0.23631671 -0.055700555 0.12907974 -0.20752034
000080 b8 04 33 3e 42 85 eb 3d 59 2f 15 3e e2 20 1e be
       0.17482269 0.11500026 0.14568843 -0.15442231
000090 ee b9 40 be 1b af d7 bd 87 0f a2 bc 72 4f 6a be
       -0.18820927 -0.105314456 -0.019782795 -0.22881868
0000a0 1a b0 89 be bc 53 af bb 1f d2 09 be a3 e5 2b be
       -0.26892167 -0.005350558 -0.13459061 -0.16786818
0000b0 33 6c 81 bc 59 25 e5 3c 61 44 c7 bd 40 0b 8b bd
       -0.015798664 0.02797191 -0.09729839 -0.06789255
0000c0 cb 0f 85 be 9b a9 25 be bb e0 04 3e 34 2c 8b 3d
       -0.25988612 -0.1617798 0.12976353 0.067955405
0000d0 dd 9e ba bd 49 2d 35 be cc a3 2a 3e 77 66 03 3e
       -0.09112332 -0.17693056 0.16664046 0.12832056
0000e0 65 12 44 3e 0d 93 82 be 19 bf 2e 3e f1 7d ca 3d
       0.19147642 -0.25502816 0.17065085 0.09887303
0000f0 9d f1 76 3e ce 49 6e 3e 95 f0 e5 3d be f0 28 3e
       0.24115606 0.23270342 0.11227528 0.16498086

fc2.weight f4 [64, 64]
000000 4d 56 47 bd bb ac 01 3d 41 b1 a7 3b c0 a8 e5 bd
       -0.048666287 0.03165887 0.005117566 -0.11213827
000010 87 8b 0d bd 84 f3 25 bd 95 70 dc bd 4c c1 84 3b
       -0.03455689 -0.040515438 -0.10763661 0.004051363
000020 54 68 f4 3d 38 ec 15 3d 2e 8f 2a 3e 98 22 8c 3d
       0.119339615 0.03660223 0.16656181 0.06842536
000030 9a 29 61 bd 41 53 01 be 8e 9a 9e bd bb 4b e4 3d
       -0.054971315 -0.12629415 -0.07744323 0.11147257
000040 d3 f0 04 bd 90 17 90 bd 52 3d d8 3d 9c 26 a3 3c
       -0.03245623 -0.07035744 0.10558571 0.019915871
000050 4b 06 c1 3d c5 17 08 3e 69 a6 ac bc 42 fa bb bd
       0.094250284 0.13290317 -0.021075444 -0.09178592
000060 eb 3c 43 3d 6e 0b bb bd 63 1b 5a bb fc b5 c2 bc
       0.047665518 -0.091330394 -0.0033280484 -0.023768418
000070 8b 27 89 3c a9 5c 15 3e c9 2a 38 bd 3a 99 8d bd
       0.016742488 0.14586128 -0.044962678 -0.06913991
000080 97 ae f9 bd 69 e1 b1 bd ed e9 f0 3d 95 05 11 3c
       -0.121915035 -0.08685572 0.11763368 0.0088514285
000090 5d 27 86 3d 71 5a 98 bd f4 5e 91 bc 7c f9 8e 3c
       0.06550477 -0.07439125 -0.017745472 0.017452948
0000a0 74 e8 e4 bd 12 04 86 3d 5b e1 a3 3d 9e 1a 46 3d
       -0.111771494 0.06543745 0.080019675 0.048365228
0000b0 72 9a ff bd f8 10 c9 3d 88 71 c5 bd c6 bc 2a 3e
       -0.1248063 0.0981769 -0.09640795 0.16673574
0000c0 be 01 ac bc bd 0b 38 bd 56 ea 47 bd e0 d0 54 bc
       -0.020996924 -0.04493307 -0.048807465 -0.012989253
0000d0 58 1e 10 be eb 72 e8 bd 2a 9e a5 3d e8 08 c7 3c
       -0.14074075 -0.11350044 0.08086808 0.024296239
0000e0 d9 58 29 bd e9 ec b2 bd 01 25 c9 3d b8 67 2f be
       -0.041344497 -0.08736593 0.09821511 -0.1712941
0000f0 86 bf 01 bd 30 94 a9 3c dd ad b6 bd c4 be 14 be
       -0.03167679 0.020700544 -0.089198805 -0.14525896
000100 fa 8e 48 bd ed 7a 08 bb 0e 5c e5 bd aa de 09 3c
       -0.048964478 -0.0020825223 -0.11199199 0.008414904
000110 65 4e ee bd d6 1b df bd 57 d3 0e be fe 60 b9 3d
       -0.11636046 -0.10893981 -0.13947807 0.09051703
000120 45 a9 c7 3c 97 a2 5f 3e aa b9 dd bc bb 42 ee 3c
       0.024372706 0.21839367 -0.02706607 0.029084554
000130 92 05 82 3d a7 d0 1d be 95 96 f2 3d f4 4d 85 bd
       0.06348719 -0.15411626 0.118451275 -0.06509009
000140 74 08 6e bd 70 79 b9 3d a7 09 1d 3c 97 74 a2 3d
       -0.05811353 0.090563655 0.009584821 0.07932394
000150 e0 03 cd bd 15 65 a6 3c 65 0f 6d 3d 31 f8 29 bd
       -0.10010505 0.020311872 0.05787601 -0.04149646
000160 4f 50 11 3d f0 0d f1 bc e6 4f 90 bd af 7f 83 bd
       0.03547698 -0.029425591 -0.070464894 -0.06420838
000170 ac 20 86 bd f2 15 14 bc 67 c9 90 bd 82 c3 fd bd
       -0.065492004 -0.009038435 -0.070696644 -0.12390806
000180 8f 74 b7 bd 4e 23 e1 bd bc 64 c2 bc bb 7c 92 3d
       -0.08957779 -0.10993062 -0.023729675 0.07152697
000190 2b 4e 2b bd 54 6f 13 be e4 82 52 3e 26 01 04 3c
       -0.041822594 -0.14397937 0.20557743 0.008056914
0001a0 78 76 ad bb 38 1e ae bc d6 23 31 bd e4 6d 36 3d
       -0.0052936636 -0.021254644 -0.043247066 0.044538394
0001b0 a5 6c c4 3c 43 11 12 3e 45 38 18 bd 20 c5 87 bc
       0.023977587 0.14264397 -0.037163038 -0.016573489
0001c0 80 a0 e4 3b 77 20 5a 3e e9 7a 4e 3d 1f a9 21 bd
       0.006977141 0.21301447 0.050410185 -0.039467927
0001d0 a9 31 4e bd ab 6b 4f 3d c0 2b 86 3c 11 4b 20 bc
       -0.05034033 0.05063979 0.016378284 -0.009783522
0001e0 93 d9 a2 bd 1b 84 07 3e 7f 23 c3 bd a4 02 84 bd
       -0.07951655 0.13233988 -0.09528255 -0.06445816
0001f0 39 76 3d 3d c6 3f 32 bd 9c 81 b8 bb 45 f2 ac 3c
       0.046255324 -0.04351785 -0.005630685 0.021111617
000200 00 5c ba 3b 45 c0 6b 3c 83 2f c3 3c d2 b3 31 bc
       0.005687237 0.014389102 0.023826366 -0.010846095
000210 46 f8 cf bc 5b 21 07 bd 6c 81 08 be a5 66 ea bd
       -0.02538694 -0.032990795 -0.1333062 -0.11445359
000220 b5 fe 81 3d ef 26 9f 3d fd e5 59 3d 86 4d ff 3d
       0.0634741 0.07771098 0.05319785 0.12465958
000230 05 f1 80 bd 59 7d d5 bd b5 62 5c bd 6b 67 d9 3d
       -0.06295971 -0.10424299 -0.05380507 0.106154285
000240 82 81 ac bc 64 37 d9 bd 95 a2 d3 3d 8c c0 5e bd
       -0.021057848 -0.10606268 0.103337444 -0.054382846
000250 93 44 c8 3d 7b 7d fd 3d df 12 f1 bd bf a8 cf bd
       0.097787045 0.12377449 -0.117711775 -0.10139608
000260 35 9c 7c 3e 6a d8 19 bc 5a d8 36 3c b9 ea 1e be
       0.24668963 -0.009389976 0.011159981 -0.15519227
000270 5a f5 ca 3d 6b e6 4f 3e 2f 49 c6 bd 72 b9 ab bd
       0.09910078 0.20302741 -0.096819274 -0.0838498
000280 86 b6 97 bd a2 fe 17 bc 41 a0 1a bd 75 bf d8 bc
       -0.074078605 -0.009277018 -0.037750486 -0.026458481
000290 11 1b c5 3d a1 a8 d6 bd 93 7f db 3d 88 5a c3 3c
       0.09624303 -0.10481382 0.10717692 0.02384688
0002a0 bc fa 1b be 65 84 b2 3c b3 8b c0 3d 66 f9 da 3d
       -0.15232366 0.021791646 0.094016455 0.106921
0002b0 ad 6b 85 bd 62 24 cd 3d 42 c4 0c 3d 5d a6 ea 3d
       -0.06514678 0.10016705 0.034366854 0.114575125
0002c0 87 a6 75 bc 83 fc 78 3c d0 c9 84 bd ce 87 06 be
       -0.0149933165 0.015196922 -0.06483805 -0.13137743
0002d0 7a 45 22 be e0 90 e4 bd 38 aa 19 3e c5 16 04 bd
       -0.15846816 -0.11160445 0.1500634 -0.032248277
0002e0 6f 4c c7 bc 2a 22 0b bd 67 4f ba 39 b3 6e da bc
       -0.024328439 -0.03396813 0.00035535844 -0.026664114
0002f0 09 b0 f2 3c 8c 89 73 3d 84 de f0 3c ef eb a2 bd
       0.029624956 0.059457347 0.029402979 -0.07955157
000300 97 39 d5 3c 96 6d 93 3d fa 35 aa bd bb 17 71 bd
       0.026028438 0.07198636 -0.083110765 -0.05886052
000310 d1 3b a4 bd 20 33 a7 3c 75 68 f7 bc d4 3f af 3d
       -0.080192216 0.02041012 -0.030201176 0.08557096
000320 c0 f8 9e bd 5f 71 92 3d ea f2 ce bd 69 cc af bb
       -0.07762289 0.0715053 -0.10104926 -0.0053649438
000330 5e 1b 1e 3e ad bf 27 bd f7 c1 f5 bb d8 6b 30 bc
       0.15440127 -0.04095428 -0.007499929 -0.010767899
000340 76 bf 66 3b 1e 35 23 3d 86 bd c1 3d 2e fc b4 3c
       0.0035209334 0.03984558 0.09459977 0.022092905
000350 c1 c8 83 bd 77 36 b3 3d 18 81 09 3e 96 1a c4 bc
       -0.06434775 0.08750623 0.13428152 -0.023938458
000360 d7 2f 95 bd b9 7e 62 3d e9 7f 06 3d 8f 0b 1f 3d
       -0.07284515 0.055296633 0.03283683 0.038829383
000370 b5 73 4e bd f3 2d a4 bd c9 f4 16 bc fd 2e 00 be
       -0.050403316 -0.080165766 -0.009213635 -0.12517925
000380 cd b1 e2 3c d6 b3 cc bc 4e c5 18 3d f5 8e b3 3d
       0.027672673 -0.024988096 0.03729754 0.08767501
000390 d8 d0 a1 bc 58 3d 96 bd a3 ba 20 3d 0c 80 2c 3d
       -0.019752905 -0.07335919 0.03924049 0.042114303
0003a0 60 1f f4 bb a5 1e f8 3c 28 1c 1e bd 0c 13 0d 3d
       -0.0074500293 0.03028805 -0.03860107 0.034441993
0003b0 7f 93 23 3d 71 fb 71 3d cd 88 99 bd 7b 36 ed 3c
       0.039935585 0.059077684 -0.07496796 0.028956642
0003c0 a3 f8 6b bb 4d 80 af 3d 68 39 1c 3e 4c d4 9d bc
       -0.0036006353 0.08569393 0.15256274 -0.01926627
0003d0 93 80 eb bc c3 7d 7c 3d 19 34 d9 bd d9 47 f1 3d
       -0.028747832 0.061643373 -0.1060564 0.11781282
0003e0 6a 29 99 3c 37 fc 19 3e 98 fe bc bd bd 98 93 bd
       0.018696506 0.15037619 -0.092282474 -0.07206867
0003f0 ce 7d 1e 3c 8c 25 c1 3d 26 d0 6e bd 51 c9 07 3d
       0.009673549 0.094309896 -0.058303975 0.033150975

fc2.bias f4 [64]
000000 ea 70 22 3d 4c 43 59 bd 35 6d cb 3d f1 19 c2 bc
       0.039658464 -0.053042695 0.09932939 -0.02369401
000010 77 53 1c 3d cd f9 c2 3d 96 e1 89 bd 48 bf 8b 3d
       0.038165536 0.09520302 -0.0673248 0.068235934
000020 24 a4 a0 3d d9 20 cc 3d d6 c3 fb bd 7f 44 16 3d
       0.07843807 0.09967203 -0.12293212 0.036686417
000030 71 56 de bc 8e 8c 9f bd 3f 7f da bd 7a 9d 9e 3d
       -0.027140828 -0.077904806 -0.106688015 0.0774488
000040 7c 68 a7 bd aa e3 03 3b 1e 69 7b 3d cb ec d9 bd
       -0.08174226 0.0020124712 0.061379544 -0.10640868
000050 0f 91 4f 3d 72 ca 22 3d 24 bd 49 3d 78 b4 63 bc
       0.050675448 0.03974385 0.049252644 -0.013898008
000060 fe 4b b1 bd 65 29 01 3e 78 93 dd bd 47 b6 23 bd
       -0.086570725 0.12613447 -0.10819143 -0.039968755
000070 aa 95 97 3d 4a 53 b0 3d 19 e8 03 bd 13 b4 9c 3d
       0.07401593 0.08609636 -0.032203767 0.07651534
000080 cd 89 4a 3d aa c0 f2 3b 76 02 9b bc db 79 b0 bc
       0.049447823 0.0074082213 -0.018922072 -0.02154248
000090 c4 7f f8 bc 14 b5 c4 bd 30 c2 2b 3d 53 fe bf 3d
       -0.03033436 -0.096048504 0.04193324 0.0937468
0000a0 77 ee 7b bd f3 1e d4 bd 6c 1a 8f 3c c5 cf 81 bd
       -0.061506715 -0.103574656 0.017468654 -0.06338457
0000b0 21 c2 d4 3d 40 dc 63 3d ff 6f 86 bd bd 2a cf 3b
       0.1038859 0.05562997 -0.0656433 0.0063222335
0000c0 f8 43 fd bc c0 4b e9 3d 7b 30 28 bd 55 17 a7 bd
       -0.0309162 0.11391401 -0.04106186 -0.08158747
0000d0 2d 0d 72 bd a5 6e 99 3d 4f c3 b1 bc a5 48 46 3d
       -0.059094597 0.07491807 -0.021699576 0.048409123
0000e0 86 4d 3d bd 60 4e fb 3d 0d 07 56 3d 31 81 01 3e
       -0.04621651 0.12270808 0.052252818 0.12646939
0000f0 25 18 48 bd c8 e8 74 bd b6 d2 f4 bd f7 ea 33 3d
       -0.04885115 -0.05979231 -0.119542524 0.04392525

fc3.weight f4 [8, 64]
000000 e7 63 ef 3e 7f f8 ad bd 17 ff 01 3f 54 8d 9e be
       0.46755907 -0.084946625 0.5077986 -0.309672
000010 35 4a 04 3f b2 61 8c be a7 42 09 3f dc 1e e7 3e
       0.5167573 -0.27418286 0.5361733 0.4514073
000020 45 05 bc be ff ea 96 3e c6 b2 37 bd 49 0a a7 be
       -0.3672277 0.29476163 -0.044848226 -0.32625034
000030 db d0 27 be 2d 2b 3e 3c 6e 4d d2 be b9 66 c9 be
       -0.16388266 0.011606974 -0.410747 -0.39336184
000040 0f 22 dc be 24 43 7f 3e 68 87 18 3e ef 9c 80 be
       -0.42994735 0.24927956 0.14895403 -0.2511973
000050 3a 49 92 3d 69 a8 0f be ee 88 11 be 07 8d d6 be
       0.07142873 -0.14029087 -0.14212391 -0.4190447
000060 ad 27 ed be d8 c6 f9 3d 08 2e f3 3e b7 fc 01 3f
       -0.46319333 0.121961296 0.47496057 0.5077624
000070 34 5c 6c be d6 63 bb be 56 6e 0e be 59 9e 2d bb
       -0.23082048 -0.36599606 -0.13909277 -0.0026492088
000080 ea 30 c0 be 1c 37 c2 be fd f3 eb 3d ed 25 fe be
       -0.37537318 -0.3793267 0.115211464 -0.4963831
000090 35 af e7 be 97 3f a7 be 53 bc e8 be 4d 0f d6 be
       -0.4525086 -0.32665703 -0.4545618 -0.4180855
0000a0 c1 ef e1 be 4a ef 07 3f 71 cf 2d be ec c2 b7 be
       -0.4412823 0.530995 -0.16973664 -0.358909
0000b0 ec 99 48 be dd 21 c7 bd 6d 11 97 3e a3 98 27 be
       -0.19589967 -0.09723256 0.29505482 -0.1636682
0000c0 a6 8e d3 3e a2 b4 7f be e7 09 de be b0 5d fa bd
       0.4131977 -0.2497125 -0.4336693 -0.12224901
0000d0 c1 da ed bd e4 f9 dd 3e f6 7b b8 bc 55 86 ac 3d
       -0.116139896 0.43354714 -0.022520047 0.08424059
0000e0 35 aa d7 3e 78 77 e2 be 7e e3 30 3e b4 94 a6 be
       0.42122045 -0.44231772 0.17274281 -0.32535326
0000f0 f2 08 c6 be 0d 83 04 3f 33 b1 3e be 65 6a 98 be
       -0.386787 0.5176247 -0.18622284 -0.29768673
000100 34 70 bd be b2 a2 bb 3e a7 57 7e be 3e 04 ce 3e
       -0.36999667 0.36647564 -0.24838124 0.40237612
000110 e5 44 92 be 97 06 b8 be e5 d5 57 be d6 58 ad be
       -0.28568187 -0.35942528 -0.21077688 -0.3385684
000120 e3 55 dc be cf ff c7 be 17 ff a4 be 8e 5f 5c b7
       -0.43034276 -0.39062354 -0.32225868 -1.313527e-05
000130 bb be 91 be a3 0a 92 be ff 1a 8f be 9c 47 a0 bd
       -0.28465828 -0.2852374 -0.27950284 -0.078261584
000140 36 b9 de be 61 90 a6 be 18 96 ac be f7 ce ba be
       -0.4350068 -0.32532027 -0.33708262 -0.36486027
000150 9f 8a bf be bd 51 83 be 7e 8f 87 3e 9c d4 21 3e
       -0.37410447 -0.256483 0.26476663 0.1580376
000160 f6 dd ce be 76 ac 3c 3e 97 16 76 be a4 f9 9a be
       -0.40403718 0.18425164 -0.24032055 -0.30268586
000170 80 73 a4 3e a2 18 e6 be 20 23 d0 be 14 61 b9 be
       0.3211937 -0.44940668 -0.40651798 -0.36206877
000180 82 cf c6 be 3e bd 6e be e8 3f 88 be ba a6 67 3d
       -0.3883019 -0.23314378 -0.26611257 0.056555487
000190 c7 af c8 be 1c 90 d8 3e e0 75 bc be 4d 3e 80 be
       -0.39196607 0.42297447 -0.3680868 -0.25047532
0001a0 93 c6 ad 3e d3 f9 b2 be 14 aa cd be f2 59 97 be
       0.33940563 -0.34956226 -0.40168822 -0.2956081
0001b0 c5 61 5e be 7b a8 cf be 36 1a b7 be 30 20 6c 3e
       -0.21716984 -0.40558228 -0.35762185 0.23059154
0001c0 4c 26 92 be 87 95 9d be f9 ff 6c 3e e9 bb 14 be
       -0.28544843 -0.30778143 0.23144521 -0.14524807
0001d0 57 e6 78 be 9f fc 67 be 7c 1a f5 be 35 cc 44 3e
       -0.24306618 -0.22654961 -0.47871768 0.19218524
0001e0 e7 63 94 be b4 a7 db be 23 90 74 3d 31 ba 8b 3e
       -0.2898247 -0.42901385 0.059707772 0.2729049
0001f0 14 06 10 be ef 95 ab be ca d0 17 be 1f f6 be 3e
       -0.14064819 -0.33512828 -0.1482574 0.3729715
000200 e9 90 9b be 54 d5 a4 be 84 78 38 be ff 70 95 be
       -0.30383995 -0.32194006 -0.18014723 -0.29187772
000210 7b 3d ee bd b3 e6 31 be 79 c0 52 be 23 60 3b be
       -0.1163282 -0.17373161 -0.20581235 -0.18298392
000220 f1 06 2d bc 22 7e b5 be 74 78 ce be 59 85 b4 be
       -0.010560737 -0.35447794 -0.40326273 -0.35257986
000230 1e 0a 41 be 82 4e c2 be 9a a7 84 3c c2 43 b2 be
       -0.18851516 -0.37950522 0.0161932 -0.3481732
000240 24 82 7e 3c 2e b4 43 be 86 23 81 be 4d 93 85 3b
       0.015533958 -0.19111702 -0.25222415 0.0040763975
000250 17 15 c9 be d9 be 81 be 30 b0 89 be 7d 26 cd be
       -0.39273903 -0.25340918 -0.26892233 -0.40068427
000260 63 8c 0d bc 18 b0 bd be af 91 99 be 75 c0 05 be
       -0.008639428 -0.3704841 -0.2999396 -0.13061698
000270 51 22 ba be 03 84 b3 ba c3 9d f6 bb b6 13 cf b9
       -0.36354306 -0.0013695959 -0.007526131 -0.00039496802
000280 25 1d 01 bc 6a 77 38 3c 1c 6a bc be b2 b5 05 3c
       -0.007880484 0.011258939 -0.36799705 0.008160995
000290 4c 7b 55 bc 0a fc 17 be 37 e0 1b bb 2c f6 d8 3b
       -0.013029885 -0.14842239 -0.0023784766 0.006621143
0002a0 bf b8 f4 bc e8 96 8e be b7 cd 5d 3c 75 b6 a7 be
       -0.02987325 -0.27849507 0.013537816 -0.3275639
0002b0 e2 75 59 be cf 5b b1 be cc 77 a9 bd 0c 0e 7b be
       -0.21236375 -0.34640357 -0.082748026 -0.24517077
0002c0 f4 db 13 bc cc fa 4d bd 4b aa c8 bd 7d 74 74 be
       -0.009024609 -0.050288007 -0.09798106 -0.23872562
0002d0 6e cf f5 3a af a7 b3 be fc c6 97 bb 4a 44 bc be
       0.0018753835 -0.3508887 -0.004631875 -0.3677085
0002e0 65 03 48 be 99 04 e9 3b e2 c3 7a be 18 fe 66 be
       -0.19532545 0.007111144 -0.24488786 -0.22557867
0002f0 a9 20 f4 bd c5 3a 96 be e1 3d c5 3c 5b 39 81 be
       -0.11920292 -0.29341713 0.024077358 -0.2523907
000300 01 7c 6e be a2 42 a8 be 51 c5 a5 be 87 ac 96 be
       -0.23289491 -0.32863337 -0.32377103 -0.29428503
000310 ba 2e 9b be 60 9e 48 be d9 ee 71 be 3f 97 61 be
       -0.30309087 -0.19591665 -0.2362627 -0.22030352
000320 63 64 bc 3b 61 96 ab be 3b e3 bb be 39 9e b3 be
       0.0057492717 -0.33513168 -0.366968 -0.35081652
000330 44 f7 de bd 72 ef 9e be 62 4e 91 bb c4 7e b7 be
       -0.10887006 -0.31042057 -0.004434393 -0.35838902
000340 8b bd 5a bc 7d 22 8c be 77 77 d3 be f2 81 93 ba
       -0.013350855 -0.27370062 -0.41302082 -0.0011253937
000350 d9 18 b9 be 12 fe a1 be 33 9e ac be cf 26 c3 be
       -0.3615177 -0.31639153 -0.33714446 -0.38115546
000360 19 e0 66 3b e6 0d 9c be a2 39 c7 be 06 0d 62 be
       0.0035228787 -0.30479354 -0.38911158 -0.2207528
000370 78 f7 c7 be 90 b1 82 39 e5 35 49 3c 6f 31 a6 3c
       -0.3905599 0.00024927827 0.012280916 0.020287244
000380 33 c4 8e 3c 60 e4 9f bb a2 3a c1 be e2 85 a4 bb
       0.01742754 -0.0048795193 -0.37740046 -0.005020843
000390 d6 58 8f 3c 0a 06 7f be d3 10 a7 bc 1d cc ac bb
       0.017498415 -0.24904647 -0.020393765 -0.0052733556
0003a0 2b 72 df 3c 23 7c 62 be e9 d0 e2 bb ce 49 85 be
       0.02727612 -0.22117667 -0.0069218767 -0.2603287
0003b0 d3 1f 3f be 80 f4 df be c6 3b c7 bd 1f 6a 7b be
       -0.18664484 -0.43741226 -0.09728198 -0.245522
0003c0 3c 9d 49 bc d1 57 1f bd 29 b0 bb bd 40 38 b7 be
       -0.012305554 -0.038902108 -0.09164459 -0.35785103
0003d0 5e cf 86 3c 38 13 a1 be 05 e5 b9 3b dc f3 89 be
       0.016456302 -0.31459975 0.005673053 -0.26943862
0003e0 9b f1 30 be 04 2a 50 bb 29 89 7c be 24 bc b1 be
       -0.17279665 -0.0031763325 -0.24661697 -0.34713852
0003f0 15 03 fd bd ea 2c d1 bd 9a 0a 6f bc 0f 90 9a be
       -0.123541035 -0.10213645 -0.01458993 -0.30188033

fc3.bias f4 [8]
000000 b1 ea 07 be a1 45 30 be 34 90 bb bd 90 f2 5a bc
       -0.13273121 -0.17214061 -0.09158364 -0.0133634955
000010 cb cd 14 be 3f 4e 3a be 21 68 86 be 44 5b 81 be
       -0.14531629 -0.18193911 -0.2625132 -0.25264943

bn1.weight f4 [64]
000000 80 7c 85 3f 4e a6 8f 3f 89 4f 74 3f 89 66 6a 3f
       1.0428619 1.1222627 0.9543386 0.91562706
000010 30 ac 68 3f 06 b9 6c 3f 5f db 71 3f 3f ec 7a 3f
       0.9088774 0.92469823 0.9447536 0.9801673
000020 27 f3 82 3f ec 23 79 3f df 1c 87 3f c1 af 86 3f
       1.0230454 0.9732044 1.0555686 1.0522386
000030 a9 58 78 3f 53 31 7b 3f f7 ae 84 3f 0b a3 81 3f
       0.97010285 0.9812214 1.0365895 1.0127882
000040 7c a5 6f 3f 4d 60 82 3f 65 55 85 3f 11 b5 7c 3f
       0.93611884 1.0185639 1.0416685 0.98713785
000050 5a c5 61 3f 9e 08 87 3f cf 3c 7e 3f 3c ef 81 3f
       0.8819176 1.0549505 0.99311537 1.0151134
000060 2a 53 83 3f 10 97 84 3f 17 42 7a 3f 2e 93 83 3f
       1.0259755 1.0358601 0.97757095 1.0279291
000070 da ed 80 3f 9b b7 84 3f b2 5f 7d 3f 9d 8c 7b 3f
       1.0072587 1.0368532 0.98974144 0.98261434
000080 d8 f4 75 3f bd df 81 3f 79 3a 80 3f 16 c0 6d 3f
       0.96076727 1.0146405 1.0017844 0.92871225
000090 6d fc 84 3f b9 2e 80 3f 1f 50 7c 3f 08 2b 8c 3f
       1.0389534 1.0014259 0.98559755 1.0950632
0000a0 07 d3 84 3f c8 f4 80 3f b8 25 87 3f 4a f2 7c 3f
       1.03769 1.0074701 1.0558386 0.98807204
0000b0 47 8c 87 3f 28 6b 71 3f a1 54 5d 3f 5e 4d 8d 3f
       1.0589684 0.9430413 0.8645726 1.1039236
0000c0 bd c7 84 3f 7f f5 7e 3f 9f 4b 85 3f a9 35 83 3f
       1.0373455 0.9959335 1.0413703 1.0250751
0000d0 3f 1c 75 3f b4 43 85 3f eb 08 7d 3f a6 22 87 3f
       0.95746225 1.0411286 0.9884173 1.0557449
0000e0 28 a2 85 3f d3 ee 8c 3f e6 d3 70 3f 4f 5f 78 3f
       1.0440111 1.1010383 0.9407333 0.9702043
0000f0 47 a2 81 3f e6 34 88 3f 83 a7 67 3f 0e 2d 81 3f
       1.0127648 1.0641143 0.9048998 1.0091875

bn1.bias f4 [64]
000000 13 b7 0d bd a7 07 3a 3d 97 b0 e2 3c c7 71 6b bd
       -0.03459842 0.045417454 0.027672095 -0.057481553
000010 48 98 21 bd 14 b7 b8 bd 1a d4 07 be c8 c1 93 bc
       -0.039451867 -0.090192944 -0.13264504 -0.018036738
000020 6f 4f 9f 3c 50 b3 fe 3b e3 5c 1f 3c 54 0b 7e 3c
       0.019447057 0.0077728406 0.009726736 0.0155056305
000030 4d bf 94 bd 4a d8 c1 bd b2 24 ac 3d 0d 0c 43 bd
       -0.0726305 -0.09465082 0.084054366 -0.047618914
000040 99 db 16 be cc 69 52 3c eb b9 37 bd fd 3e fe bd
       -0.14732207 0.012842607 -0.04485504 -0.12414358
000050 b3 11 c8 bd c8 9f b9 3c 43 dd 65 bd e3 8e 84 3c
       -0.09769001 0.022659197 -0.056119215 0.016181415
000060 a7 06 0e be db aa 1c bd 4f 92 95 bb f3 7d 84 3d
       -0.13869725 -0.038248878 -0.0045645605 0.064693354
000070 d6 21 0b bd ce 26 70 bc ca ee 2c bd 3f 39 b3 bd
       -0.033967815 -0.014657689 -0.042219914 -0.08751153
000080 d7 ec bc bd 15 2c 1d be 70 4e 2a 3d ba 11 c6 bd
       -0.09224861 -0.15348847 0.04157871 -0.0967135
000090 f0 58 20 3d 2e ec 0e be e1 b6 be 3c 3b 2f cb bd
       0.039147317 -0.13957283 0.023280563 -0.09921118
0000a0 54 0e ef 3c dc ef c0 bd 06 45 db bc 1b 4c 5e 3c
       0.029181637 -0.094207495 -0.026766311 0.01356795
0000b0 7b a9 d6 3d 0b bd c3 bd a1 d8 20 be 33 bc 79 3d
       0.104815446 -0.095575415 -0.15707637 0.060970496
0000c0 c8 37 02 3d 26 da a9 bc 45 2c b6 bc e5 47 9d 3c
       0.03179148 -0.020733904 -0.022237906 0.019199321
0000d0 5f 7e bc bd 0c e0 f5 3c 69 21 e2 bc f0 9f fc 3c
       -0.09203791 0.03001406 -0.027603822 0.030837983
0000e0 e8 13 f8 bb 5f b0 d0 bc 44 d3 83 bc a1 a8 d4 bd
       -0.0075707324 -0.025474725 -0.01609195 -0.10383726
0000f0 32 08 de 3c 72 13 7c bd 52 7e e8 bd 31 fc 07 bc
       0.027103517 -0.061541982 -0.11352219 -0.008299873

bn1.running_mean f4 [64]
000000 35 c2 24 be 1d 31 38 3f 30 44 9e be 12 be 3e bf
       -0.16089709 0.7194994 -0.30911398 -0.74508774
000010 f5 fe 0e be f8 a8 20 bf a8 81 8c bf 4f 47 1f 3e
       -0.13964446 -0.62757826 -1.0977068 0.15554546
000020 20 20 e1 be 26 02 9c be 3c be 92 bd e9 08 ec be
       -0.43969822 -0.3047039 -0.071651906 -0.46100548
000030 92 ca 05 3f 7f f1 32 bf 79 0a a1 bb 47 75 16 3f
       0.5226222 -0.69899744 -0.0049145785 0.587727
000040 70 79 70 bf 92 12 7b 3e 4d 64 8c be c4 01 64 bf
       -0.939353 0.24518803 -0.27420273 -0.89065194
000050 89 48 44 be 33 fa b3 bc c8 b5 80 ba 36 d5 a8 be
       -0.19168295 -0.02196989 -0.00098198 -0.32975167
000060 ca 41 3b be 0e e3 2f be 21 cb da 3d de 28 b0 3e
       -0.18286815 -0.17176458 0.10683275 0.3440618
000070 a1 0f 16 bd 8a 39 41 be 7b 65 c0 bd 33 18 58 bf
       -0.036636 -0.18869606 -0.09394356 -0.84411925
000080 12 b9 cd bd 84 5d 15 bf 5f ef 69 3e 53 95 91 3e
       -0.10045065 -0.5834582 0.22845219 0.28434238
000090 56 55 e4 bd be 4b 8c bf 0b 5c ea 3e 9b 26 49 bf
       -0.11149089 -1.0960615 0.45773348 -0.7857453
0000a0 26 d7 19 bf ca f9 f3 be 5c 0b c0 be dc 4c 7b 3f
       -0.60093915 -0.4765151 -0.37508667 0.98164153
0000b0 87 9f a3 3d e8 61 20 be 29 e4 a3 bd bd 4e 54 3e
       0.07989412 -0.15662348 -0.080025025 0.20733161
0000c0 f7 5d 2d bf a3 1d de 3d b9 14 51 3e b2 30 44 bf
       -0.67721504 0.108454965 0.20418061 -0.76636803
0000d0 3c 41 d2 bd 28 dc f7 bd 2a ed b0 3f 08 96 17 3f
       -0.10266349 -0.12102538 1.3822377 0.59213305
0000e0 39 47 a9 be 5a b0 e0 3e 90 c7 bd 3e c4 6f 39 bf
       -0.3306215 0.43884546 0.37066317 -0.72436166
0000f0 20 61 65 3c f9 60 8d 3e 14 c6 2c 3e 3f c6 21 3f
       0.014000207 0.27613047 0.16872436 0.63193125

bn1.running_var f4 [64]
000000 d3 af 3f 3d 68 ba 67 3d 74 62 51 3d d1 88 9c 3d
       0.04679854 0.056574255 0.051119283 0.07643283
000010 f5 8c 4b 3d 46 8f 1e 3d 52 ae 47 3e 92 30 b8 3c
       0.049694974 0.038710855 0.19500092 0.022484098
000020 8e 52 14 3d 0c d4 73 3c d3 35 a2 3c 19 77 df 3c
       0.036211543 0.014882099 0.019801056 0.02727847
000030 68 c1 39 3d 9b 2c 7d 3d 07 41 c5 3d aa e3 0b 3e
       0.045350462 0.061810117 0.096315436 0.13661066
000040 e8 fb bb 3d cc b0 3f 3c 8b 2b 86 3c 24 61 f6 3d
       0.09178907 0.0116998665 0.016378185 0.12030247
000050 28 f7 4f 3d 58 f0 9b 3d 94 d5 3a 3d 57 d7 4f 3d
       0.050772816 0.07614201 0.04561384 0.050742473
000060 b6 17 43 3c a4 05 0f 3c 7a 51 a5 3d 14 6e 82 3d
       0.011907509 0.008729372 0.08072181 0.06368652
000070 1c fa b4 3c 29 f4 06 3d 0c fa 0a 3d 6c 3d a5 3d
       0.022091918 0.032947693 0.03392987 0.08068356
000080 07 43 73 3d 9c f6 fe 3d c3 6b eb 3c 8b fb 72 3d
       0.059390094 0.12449381 0.028737908 0.05932192
000090 3f f1 12 3d 29 3d 67 3e 96 4d 26 3e 79 44 61 3d
       0.0358746 0.22581924 0.16240534 0.05499694
0000a0 c5 9b 8a 3d 8a 00 97 3d c7 88 82 3c 0d e0 4c 3e
       0.06767992 0.0737315 0.015934361 0.20007344
0000b0 66 49 cd 3c e2 44 14 3d 8e a8 00 3d 5e 47 8e 3d
       0.025059413 0.036198504 0.031410746 0.06947206
0000c0 d9 6f 40 3d 72 71 0c 3e c1 c1 a9 3c f4 3a ce 3d
       0.046981666 0.13715151 0.020722272 0.10069838
0000d0 99 aa 46 3d 66 d5 5f 3c 22 bc 64 3e ff 7d 9d 3c
       0.04850254 0.013661718 0.22337392 0.019225119
0000e0 c8 b4 0d 3d 64 2d e9 3c 7e 7b 8b 3d f7 91 8a 3d
       0.034596235 0.028464027 0.06810664 0.06766122
0000f0 3f 11 93 3c d9 6a a9 3c ec 60 8c 3d d3 f9 4b 3c
       0.01795256 0.020680832 0.06854424 0.012449699

bn2.weight f4 [64]
000000 02 bd b6 3f 4e 5f d3 3f 18 73 e2 3f f9 9f ca 3f
       1.4276431 1.651346 1.7691374 1.583007
000010 1c 34 c6 3f f3 5f d0 3f 53 64 d7 3f 01 11 c8 3f
       1.5484653 1.6279281 1.6827492 1.5630189
000020 60 81 ca 3f 5a eb b3 3f 48 fa cb 3f b0 52 bc 3f
       1.5820732 1.4056199 1.5935755 1.4712734
000030 b1 77 c5 3f 25 e6 ca 3f 5f 4c a2 3f 52 e8 c1 3f
       1.5427152 1.5851485 1.2679557 1.5149024
000040 0c 77 b4 3f 56 11 d3 3f a7 72 da 3f ac f2 aa 3f
       1.409883 1.6489666 1.7066239 1.3355308
000050 7b eb d0 3f 31 b9 c6 3f 64 de b4 3f 59 f1 ca 3f
       1.6321863 1.5525266 1.4130368 1.5854903
000060 c3 01 c1 3f b2 77 bf 3f 85 a0 d5 3f 64 b1 db 3f
       1.5078663 1.4958403 1.6689612 1.716351
000070 2e 32 be 3f 73 08 ab 3f fd fb ae 3f f1 a7 ab 3f
       1.4859064 1.3361953 1.3670651 1.3410627
000080 65 9d c0 3f 6d 27 bb 3f a6 01 c1 3f 71 d9 c8 3f
       1.5048033 1.4621407 1.5078628 1.5691358
000090 89 d4 b7 3f eb 16 bc 3f 5a 46 bc 3f a8 24 be 3f
       1.4361736 1.4694494 1.470897 1.4854937
0000a0 77 f4 c7 3f 3c 3b d3 3f 4a 78 b3 3f d5 67 c5 3f
       1.562148 1.6502452 1.4021084 1.5422312
0000b0 a2 eb bf 3f dc 06 c7 3f fa 1f b4 3f ce 4f ba 3f
       1.4993784 1.5548968 1.4072258 1.4555604
0000c0 a9 ac c6 3f 0a e9 c2 3f b1 6f c3 3f b7 e6 c6 3f
       1.5521442 1.5227368 1.526846 1.5539159
0000d0 4d 4a 9c 3f d1 df c7 3f 03 61 c8 3f 0a 85 c0 3f
       1.2210175 1.5615178 1.5654606 1.50406
0000e0 d5 2d d6 3f d2 73 b2 3f 5d 6c b7 3f 51 b5 cd 3f
       1.6732737 1.3941596 1.4329945 1.6070958
0000f0 f0 36 a5 3f 1c 41 cb 3f 34 0a b0 3f 55 94 cf 3f
       1.290739 1.5879245 1.3753114 1.6217142

bn2.bias f4 [64]
000000 8e ab a8 3e 56 bb d8 3e 37 62 04 3f 7e a3 ce 3e
       0.32943386 0.42330426 0.51712364 0.4035911
000010 27 e1 c0 3e bf 1d b6 3e 0e e7 e8 3e 86 1f e0 3e
       0.37671778 0.3556957 0.4548878 0.4377405
000020 15 a8 d7 3e 6a c4 b0 3e cb 5e f6 3e 0a 88 af 3e
       0.42120424 0.34524852 0.48119196 0.34283477
000030 16 7e af 3e 5c 4b 03 3f 52 30 45 3e 46 ce df 3e
       0.34275883 0.51286864 0.19256714 0.43712062
000040 dc 97 bb 3e de e8 0a 3f 1a ec 11 3f 95 30 9d 3e
       0.36639297 0.5426158 0.5700089 0.30701128
000050 0d cd 17 3f 60 e9 7b 3e 1b df b9 3e 23 d3 d0 3e
       0.5929726 0.24600744 0.36303028 0.40786085
000060 ca 9e c1 3e 68 ff e0 3e 81 6f 1c 3f bc 64 f2 3e
       0.3781646 0.4394486 0.6110764 0.4734248
000070 8a f5 bd 3e 18 9a a3 3e 7a 37 c2 3e a5 7d b7 3e
       0.37101394 0.31953502 0.3793295 0.35838047
000080 9a 68 e7 3e 4f 51 92 3e 9a 28 df 3e 17 9c 02 3f
       0.45196992 0.2857766 0.43585664 0.51019424
000090 42 9a d0 3e 4e e1 b0 3e 42 59 ca 3e f7 6e e9 3e
       0.4074269 0.34546894 0.39521223 0.45592472
0000a0 42 33 f7 3e 30 95 ef 3e 46 9c cd 3e 4c 11 c6 3e
       0.48281294 0.4679351 0.4015829 0.3868507
0000b0 3e ea c3 3e 7f d0 ea 3e fd d3 c2 3e f5 3f c3 3e
       0.3826465 0.45862195 0.3805236 0.38134733
0000c0 f9 0d f2 3e 02 fb a0 3e a1 7d d0 3e 87 77 b4 3e
       0.47276285 0.31441504 0.40720847 0.35247442
0000d0 22 38 ef 3d a6 91 e8 3e d1 bc 16 3f 54 02 db 3e
       0.11680628 0.4542362 0.5888186 0.42775214
0000e0 b0 0d f5 3e 2e 6e c3 3e e8 20 de 3e fd 90 9d 3e
       0.47862005 0.38169998 0.4338448 0.3077468
0000f0 f4 8b 38 3e 28 b6 c5 3e 3c 16 00 3f 99 3d e0 3e
       0.18022138 0.38615537 0.50033927 0.43796995

bn2.running_mean f4 [64]
000000 bc 34 eb bd b0 d8 19 be a2 a8 07 3e cf ea 82 3e
       -0.11484668 -0.15024066 0.13247922 0.2556977
000010 0e 74 00 be 1b 9c b5 3e 67 bb cc bd ea cf 6f bd
       -0.12544271 0.35470662 -0.09996682 -0.05854789
000020 7b 27 3f be 06 45 01 be 47 1d 2e be 44 d3 df 3e
       -0.18667404 -0.12623987 -0.17003356 0.4371587
000030 01 11 70 3e cd 6a ec be 8b 7e 1c bf b9 68 6d 3e
       0.23443986 -0.46175233 -0.6113059 0.2318448
000040 b2 8e 08 bf 2a 87 ec be 10 63 63 3e f2 b9 04 bf
       -0.53342736 -0.46196872 0.22205758 -0.5184623
000050 62 f1 b4 be 01 8a a4 3e 5a 94 09 3e 50 20 36 3e
       -0.3534041 0.3213654 0.13435498 0.17785764
000060 56 c4 84 be 3e 29 e7 bd 56 6e b0 bd 94 b4 8e bd
       -0.25931042 -0.11287163 -0.08614795 -0.06968036
000070 91 58 ee 3d 28 c1 85 be 94 33 85 bf a5 b4 93 bf
       0.116379865 -0.2612393 -1.0406365 -1.1539503
000080 8c 10 05 bf 1d a9 08 3d 54 6b c3 bd 7e 3b 4e bf
       -0.51978374 0.033364404 -0.095419556 -0.8055953
000090 ac 38 76 bf 4e 32 c1 3e 2c 09 ad 3e 2d 70 8e be
       -0.96180224 0.37733692 0.3379606 -0.27819958
0000a0 b7 fe 0d bf a2 f5 ee bd c8 00 9f bf 24 ff e8 3e
       -0.5546679 -0.116679445 -1.2422113 0.45507157
0000b0 0c 0b fd 3e 8a f6 91 3e 7e 78 cb bd 98 a6 5a bd
       0.4942249 0.28508407 -0.099350914 -0.053381532
0000c0 7c 2b 6e bf a6 3c 0e 3f 1c 31 ec 3e 8d f7 38 bd
       -0.930351 0.5556129 0.46131217 -0.045157958
0000d0 cd ca d5 be 9d 55 0f 3e 07 54 6e bf 54 d4 92 be
       -0.41756287 0.13997503 -0.93096966 -0.28677619
0000e0 af c5 35 be d8 99 bc be c4 60 01 bf cd de b7 3e
       -0.17751192 -0.36836123 -0.5053828 0.3591217
0000f0 e9 0f 98 3e 55 95 8e be 2f 7f d1 bf 4c 61 12 3f
       0.29699638 -0.27848306 -1.6366938 0.57179713

bn2.running_var f4 [64]
000000 df d8 bd 3f 7a 9f ac 3f 6d cc 08 40 eb f7 8c 3f
       1.4831809 1.3486168 2.1374772 1.1013159
000010 0a e6 d2 3f 93 88 ae 3f 64 51 c8 3f 48 55 d9 3f
       1.6476452 1.3635429 1.5649838 1.6979151
000020 f3 1a cc 3f ba ab 5d 3f ac d4 3e 3f 95 94 8e 3f
       1.5945724 0.8659016 0.7454326 1.1139094
000030 a9 e2 98 3f c1 e7 89 3f 48 4f 8c 3f 4a 3a 8b 3f
       1.1944171 1.0773851 1.0961695 1.0877163
000040 3e f6 b1 3f 2e 5d a8 3f 1b 1e 99 3f c1 6d 53 3f
       1.3903272 1.3153436 1.1962312 0.82589346
000050 e0 48 6c 3f b0 48 a4 3f f4 c6 9e 3f 83 23 a4 3f
       0.922987 1.2834682 1.2404466 1.2823337
000060 b5 15 9b 3f a7 83 85 3f 21 46 9a 3f b1 fc e7 3f
       1.2116 1.0430802 1.2052652 1.812399
000070 ec 91 77 3f 9e 8d b1 3f 46 50 87 3f 78 87 61 3f
       0.96707034 1.3871343 1.0571373 0.88097334
000080 78 27 9c 3f 1b 36 8f 3f 85 0d 76 3f 53 42 dc 3f
       1.2199545 1.1188387 0.9611438 1.720774
000090 54 20 b0 3f e4 39 ac 3f 21 49 c5 3f 1e f2 b4 3f
       1.3759866 1.3455167 1.5412942 1.4136388
0000a0 ad fa e3 3f 15 01 96 3f c8 a2 8b 3f 0a 65 e3 3f
       1.7810875 1.171908 1.0909052 1.776521
0000b0 37 9d 7a 3f b4 f4 88 3f 7a e2 88 3f f2 3a 6a 3f
       0.9789614 1.0699677 1.0694115 0.91496193
0000c0 a6 3e f8 3f 83 28 a7 3f ee 38 86 3f e4 85 b3 3f
       1.9394119 1.3059238 1.0486124 1.4025235
0000d0 91 78 b8 3f 67 25 9d 3f a7 63 82 3f 99 93 83 3f
       1.4411794 1.2277039 1.0186661 1.0279418
0000e0 1f 5c d0 3f 3b 40 ad 3f 17 05 8a 3f c9 9e 9b 3f
       1.6278113 1.3535227 1.0782803 1.2157832
0000f0 14 25 64 3f d1 e1 cd 3f eb 03 05 40 78 ef b1 3f
       0.89119077 1.6084539 2.0783641 1.3901205
